model/mlp_option_pricing.pth (torch, 13814 bytes, 5 tensors)

model.0.weight f4 [64, 9]
00000000: 00d7 63bd fe2b d5be 49b5 16bf 434b 87be
00000010: 9ed8 1f3c 70e6 423d 0627 213e 6549 77be
00000020: bd5c fc3e cdfa f3be df44 49be 495a 813e
00000030: c1a4 1bbe e42a d43d c020 683d 5f0c 0c3e
00000040: ade6 2ebe 9037 143f d9b0 67be de44 61be
00000050: 3fba 0fbf d733 74be b00b 5e3e 7e2a 203e
00000060: 29cf d7be 106a 43be 0abb ec3d 095b 06bf
00000070: a2cb ba3e 5a67 21bf 651c 143e d149 5b3d
00000080: 181d c1bd 6426 e83d 5c81 02bf 420f 063e
00000090: cbab 81be 3979 d8be a0ee 46bf 0f1c 8a3c
000000a0: c2d5 2abe a6d9 0c3e b610 46be efcb 07be
000000b0: 5bbd d43e 53dc 27bf d8bb 383e 9b20 133f
000000c0: c214 b63c 87e2 a53d e3b7 7dbc b320 ca3c
000000d0: 1b6a 87bd 5527 ca3e fcf1 3a3e e886 223f
000000e0: e378 a7be a356 eabe f9d2 8b3c f4c3 613e
000000f0: 64d4 d1bd 92c5 cdbe 7640 c73e 4173 5abd
00000100: bc52 e23e b06e 953e b91d d93d 989b 803e
00000110: 87b0 a83d 3d87 d3bb 3404 28bf 9079 983e
00000120: 0c4a 38be 76b4 dc3e 9e0c a1be a375 19be
00000130: 885e 213e 0c0d 0d3d 7a79 f73c 64bf d9bd
00000140: 9115 003d 456b bebd 006e 1b3f 5ea6 283f
00000150: 6afa de3e 8580 7e3d c1b1 36bd b134 06be
00000160: c3bb ac3d f7cf 3dbd 23d2 0dbf 707c 91bd
00000170: 054b 393f f604 2e3d 8657 a0bd 99a9 f03c
00000180: 6f7c 913e 45cb e6be e821 db3e eef5 98be
00000190: 5bd7 15bf 9ce7 503e d5af 9f3e 21dd 8a3c
000001a0: 727c 0bbe 1cf3 07be 3c3f 853e cb8c 3c3e
000001b0: d0fe a3be 66a4 d4be 14cf 4dbf a517 1fbd
000001c0: e0dd 583d 9215 893d edcd a33e 4e0b 503e
000001d0: d562 12be 46dd e2be 1ebe 7bbe 8fec debe
000001e0: 39f3 663d d73a a2bd 482c a33d a732 97be
000001f0: d324 cc3c fb57 54bd bb91 09bf 4f62 bcbe
00000200: 97c7 bc3d 3863 d43d e280 4fbc 57ee 453d
00000210: 0f3d 983d bfc6 f03c 601e 4d3e 5526 66be
00000220: 61bf 833e e7fa da3d 9fe1 c2be 1232 ffbc
00000230: 3af8 0c3e 066d d4bc 4c6d d3be 07b1 143f
00000240: 0181 d5be f603 a23e 8f31 fbbe 59f6 943d
00000250: e81d a8bb ed16 12bd 1b48 a43e 51cb 9ebe
00000260: 332d dbbd c65c 3ebf 5904 0fbd bf03 da3d
00000270: bdb6 eebd 48e0 de3d 1a90 0abb dd97 8e3d
00000280: efa0 f6bc 10d4 7e3e ff8f 95be 8ebb 733d
00000290: 6a1e d3be b7e2 2ebe 9fb8 e1bd 3bf9 ffbd
000002a0: e0cb ebbe 3285 24bd ae5b ba3e d68b b8be
000002b0: 01b1 703e f4e3 98be da9b fe3d 3bbd 3bbe
000002c0: 5569 be3c 37cc dfbd 88d0 1abf 1aef e93e
000002d0: cd68 ccbe e1b2 57be 60d4 d13e 6e57 a8be
000002e0: 3863 80bd 5066 d53d 4a71 e23e e658 f1be
000002f0: 33c7 d13e cac0 87be f255 02bf cf04 7b3f
00000300: 5c3c 0c3e 403b 19bf 7b65 82be ee9c ae3d
00000310: 76d8 e73d a5f7 03bf 8bd5 cc3d b6c3 82be
00000320: 8b63 523f 6837 04bf 81ae 4abe f631 b63d
00000330: 4383 633f c02c 47be b4af b2be 7627 49bf
00000340: 2db4 433c 6115 c63c cd96 433e 6120 19be
00000350: 5752 2f3e 7fa4 51bd 1f88 0ebe 4799 5e3d
00000360: ada1 d13d 1846 f53e e4aa 1fbf 6aba a8bd
00000370: e698 5b3e d2dd 29bd 304f 35bf 907a 0c3e
00000380: 0d8f f73e 1724 04bf 0b61 acbe 2b0e 523e
00000390: 49cb f7bd 50c8 9c3d d5db d63c b9f8 8bbd
000003a0: 0da1 b3be 3da2 423c c463 333e 5d17 f2be
000003b0: 6276 e6be 7908 33be d688 5abe fb4c 033e
000003c0: b671 063f b9fc b8be 8a8e b7be 4c8f 03bf
000003d0: 944d 9c3e 98fe 9cbe 496b 883c b72a c83d
000003e0: 148d 7cbd 9c1d 9a3e fd3c b5be 59fe bc3e
000003f0: 27a5 97bd 4005 903d 0a94 883d 6db0 393e
-0.05562496 -0.41635126 -0.5887037 -0.26424608 0.009756235 0.047583044 0.15737543 -0.24149092
0.49289504 -0.47652283 -0.19655178 0.25264195 -0.15199567 0.10359743 0.056671858 0.13676594
-0.17080183 0.5789728 -0.22626056 -0.21998927 -0.56143564 -0.238479 0.21684146 0.1564121
-0.42150238 -0.19083428 0.11559112 -0.5248266 0.36483485 -0.63048327 0.14463957 0.053537194
-0.09429377 0.113354474 -0.50978637 0.13091758 -0.2532638 -0.42279986 -0.7770786 0.016859083
-0.16683105 0.13754901 -0.19342312 -0.13261388 0.41550717 -0.65570563 0.18040407 0.57471627
0.022226695 0.08099847 -0.015485737 0.024673795 -0.06612035 0.39483133 0.18256372 0.634871
-0.32709417 -0.45769224 0.017068373 0.22047406 -0.102455884 -0.40189797 0.38916367 -0.05333257
0.44203746 0.2918601 0.10601372 0.2511871 0.08236795 -0.0064553306 -0.65631413 0.29780245
-0.17996997 0.4310643 -0.3145494 -0.14986281 0.15758717 0.03443627 0.030209292 -0.10632208
0.031270567 -0.09297804 0.6071472 0.65878856 0.43550426 0.062134285 -0.044603113 -0.13106038
0.0843425 -0.04634091 -0.5539877 -0.07103813 0.72380096 0.0424852 -0.07829194 0.029377745
0.28415248 -0.45076957 0.42799306 -0.2987513 -0.5853173 0.20400852 0.31188837 0.016951146
-0.13621691 -0.13276333 0.26024806 0.18413083 -0.32030344 -0.41531676 -0.803941 -0.03884091
0.05294597 0.06693567 0.31993046 0.20316812 -0.14295514 -0.44309443 -0.24584243 -0.43539855
0.0563843 -0.07921379 0.0796743 -0.29530832 0.024919903 -0.051841717 -0.5373799 -0.36793754
0.09217756 0.10370487 -0.012665005 0.048323 0.07433521 0.029391645 0.20031118 -0.2247556
0.25731948 0.10692387 -0.3806276 -0.031151805 0.13766566 -0.025930893 -0.41294324 0.5808262
-0.41699985 0.31643647 -0.49061248 0.072735496 -0.005130518 -0.035666395 0.32086262 -0.31014493
-0.107019804 -0.7436031 -0.034916256 0.10645246 -0.11655948 0.10882622 -0.002114302 0.06962559
-0.030106036 0.24885583 -0.29211423 0.059505038 -0.41234142 -0.17078672 -0.11021542 -0.12498709
-0.46053982 -0.040166087 0.3639807 -0.36044186 0.23505022 -0.29861414 0.1243207 -0.18333904
0.023243586 -0.10927623 -0.60474443 0.45690233 -0.39923707 -0.2106433 0.40982342 -0.32879204
-0.062689245 0.10419905 0.44227058 -0.47138137 0.4097229 -0.26514274 -0.5091239 0.9805421
0.136949 -0.59856033 -0.25468048 0.08526026 0.113205835 -0.5154975 0.100016676 -0.2553994
0.8218314 -0.51647043 -0.1979313 0.08896248 0.88872164 -0.19450665 -0.34899676 -0.7857584
0.011944813 0.024180116 0.19100495 -0.14953758 0.17121254 -0.051182266 -0.13919114 0.054345395
0.10235915 0.4790504 -0.62370133 -0.08238681 0.21445045 -0.04147131 -0.70823956 0.13718629
0.48351327 -0.5161757 -0.33667788 0.20513217 -0.120993204 0.07655394 0.026227871 -0.068345495
-0.3508381 0.011879501 0.17518526 -0.4728345 -0.45012194 -0.17483701 -0.21341261 0.12822334
0.5251726 -0.36130312 -0.35850936 -0.5139053 0.30527937 -0.3066299 0.01665272 0.09773772
-0.06165798 0.30100715 -0.35398093 0.36912802 -0.07404547 0.07032251 0.06668861 0.18133707

model.0.bias f4 [64]
00000000: 36fb 81bd ca49 323e 3733 e73d e224 cbbd
00000010: fe86 993e 795c 633e f11b b5be 77b7 523d
00000020: aa6e 043f d2ef fcbd db74 86bb d23b 1a3e
00000030: 9eb7 95be 5fd6 60be 654d a13d e753 753e
00000040: 5a91 5ebe a109 d7bd 49f5 59bc ebb0 903e
00000050: 736d 9a3e 1e4d 89be dfe0 bd3c 591d a13e
00000060: 09a7 55be fc1a 13bf 31f8 543e c983 14be
00000070: 2ea1 fabc 7dc8 edbd fa94 a6be d6c1 d63e
00000080: da2e c73e 0a05 04be 5e9d 07bf 33d3 0b3f
00000090: 712c f2bb fb21 babe eea9 013f b833 623e
000000a0: d24e 303e f979 813e 3c2b 093f 2d52 0c3f
000000b0: e98b 443d a369 733e 1d45 acbe 9945 f03e
000000c0: 3f04 6b3e 322c 3fbd 4b7a 84be f224 813e
000000d0: 4e07 333e 5fd2 e6bc 9e0e 173e eb59 98bd
000000e0: ca68 433e aeb9 2a3d bbc7 66be 6330 223d
000000f0: 37c6 793e 879b 993e bddc 903d c547 463e
-0.06346743 0.17410961 0.11289065 -0.09919144 0.29985803 0.22203244 -0.3537288 0.051444497
0.5173136 -0.123504296 -0.0041032857 0.15061882 -0.2924165 -0.21956776 0.0787609 0.23957787
-0.21735135 -0.104998834 -0.013303109 0.28259978 0.30161628 -0.26816648 0.023178516 0.31467703
-0.208645 -0.5746305 0.20797803 -0.14503397 -0.030594435 -0.11610506 -0.32535535 0.4194476
0.38902932 -0.12892547 -0.529745 0.5461914 -0.0073905517 -0.3635405 0.5064992 0.22090042
0.17217568 0.2528837 0.53581595 0.5481289 0.04798499 0.23770766 -0.3364648 0.469281
0.22950839 -0.046673007 -0.25874552 0.252235 0.17483255 -0.028176485 0.1475167 -0.074390255
0.19082943 0.041680984 -0.22537129 0.039596926 0.24392019 0.3000147 0.070733525 0.19363315

model.2.weight f4 [32, 64]
00000000: 03d1 dfbc ffa7 983e 898f c53d 8b24 9f3e
00000010: e779 94bd d2a1 b43e d44e 84be 95a6 6d3d
00000020: 8b54 8a3e 674b 733e 6e34 953e 21c5 453e
00000030: 3d8a 77be c147 e13d af8b 283e fff9 5d3e
00000040: c754 5f3e 9cbd c43e c01e 743e fb92 1c3e
00000050: d718 3d3e 03a6 903e 850f 963e 70ad 453e
00000060: 75a5 7d3e 291c d53e 675e 623e 6676 a53e
00000070: 3782 6b3e 8c90 11be fdf5 ce3e baa2 113e
00000080: 6c4e 653e d2cc a93e 60b0 d63e 8174 8f3e
00000090: 17f4 323d 1987 1e3e d8ca 603e 8864 263e
000000a0: 22d9 6fbe b270 5d3e 4b47 a63e 7cbc 1f3e
000000b0: 967a 253e dee9 b13e b4f5 b8bd afc6 93bc
000000c0: 10fe 973e 7f07 6e3e a228 a03e 7023 8c3e
000000d0: e572 c13e 4195 4a3e 506c b1bd c776 973e
000000e0: bb56 2abe 9d60 633e 3fab 6c3e dc76 443e
000000f0: 42f3 ad3e 4e00 8d3e 483d 843e 41fb 7d3e
00000100: dbaf 32be 28f1 733e c3f7 2f3e f4a0 483e
00000110: 9f91 163e b5c4 bb3e b58e 32be e554 ac3d
00000120: e877 6c3e 352a 8e3e 2785 f43e 597c ea3d
00000130: 8632 e6bd a14a 93bc c7b8 4e3e aacf c63e
00000140: 8b1b aa3e b6f7 ac3e da4f 503d c880 873e
00000150: a464 e13e 6699 8e3e 2e7a 6c3e 76b5 a03e
00000160: 20b8 aa3e 57f9 c53e d81f 3b3e c7a8 c53e
00000170: 11bd 5c3e 6edb 51be f5e4 bc3e e4c0 a33e
00000180: ee03 a93e 800e ac3e 00e6 cf3e e610 873e
00000190: 54a6 893d 9360 633e 536b 793e 2dbf af3e
000001a0: 180e 2ebe 706e 4d3e 006e 943e 6259 6c3e
000001b0: 9b63 963e c04c b43e 25c1 563d 65ea 5fbe
000001c0: 02fd 2e3e 5b2b 753e 7d9c b83e 8c8b bb3e
000001d0: b661 073f f5c1 123e 3769 01be f8e9 433e
000001e0: 9b77 5cbd 782d 9c3e aaab a93e 0dee 143e
000001f0: 6a3f 3d3e 88cb 4c3e 31eb 473e 02be 913e
00000200: 24b6 ab3e 634d 1dbe b53c 8e3e 77a9 a1be
00000210: 1203 b53e 10b1 4abe 06f3 dd3e 8d90 ae3d
00000220: 609c 71bd 3bb0 0c3d c07e c4be 5b02 763c
00000230: b97f e53e 7a1c 9e3d 79ee 803d 9fef 9bbd
00000240: 8b1a 09be a166 e43d a762 033e d731 e8bd
00000250: 346f abbd 726b 9ebd 4d16 8dbd 3d22 783d
00000260: 2acc 72be 4bf5 38be db82 b03d 3296 b4be
00000270: 4c43 fc3d 846f 303f 7afd abbe e7fd 5c3e
00000280: b18d 2f3e 9f1f 6d3c 3253 40bf 877b e7bd
00000290: e1da 003e c63b d6bd 7f81 a83d 9a3a 843d
000002a0: 2bac 063f 8325 013e c745 12bd 2b92 6d3e
000002b0: 5686 2a3d 4520 013d 1a8c 853e c118 453f
000002c0: 17d7 683d 513d e3be 4891 95be e715 063e
000002d0: b802 73be d672 efbd bd27 003f 69a2 8a3c
000002e0: 8e6a 903e 156a bbbc 52c9 3abc a98f 7e3e
000002f0: c3f5 2d3e 6df1 823d 3991 9cbd fa99 88bd
00000300: fa3f 30be 1289 cb3e e42b 4d3e ffa8 2f3e
00000310: 05a1 a93d 9a52 dd3e 7a30 02be afce bb3d
00000320: 6606 573e 7b40 223e 443a ee3e 5d43 4e3c
00000330: 99f0 54be 2018 033e 9531 1b3e b82b 5d3e
00000340: 474a bc3e a148 d53e c4e0 793d aecc 8a3e
00000350: 3775 623e 2404 c43e 95d8 d23e bf5a a03e
00000360: 8ba4 993e 6e99 053f cd79 c23e 9056 943e
00000370: 7128 3e3d f0a2 abbe 347e 543e acc6 033e
00000380: b733 b53e 5d0d 923e 216d b73e 4d8c a73e
00000390: 7868 483e 8fe2 b03e fd48 c93e 1969 263e
000003a0: e44a 6ebc 7469 383e 8dc8 a93e a648 873e
000003b0: ffe3 963e 195a 943e db11 90bd 1bd0 55be
000003c0: 4b39 923e 2b89 b33e 6252 ac3e 54b5 bd3e
000003d0: a8c3 923e e4fc 853e c4e2 883d 4781 433e
000003e0: 7bb0 4dbe ae67 8e3e 2d45 693e a597 4d3e
000003f0: 2cb0 af3e 921f cc3d 24bf 4a3e c5c6 093e
-0.027321344 0.2981567 0.09646518 0.31082568 -0.072498135 0.3527971 -0.2584139 0.058020193
0.27017626 0.23759232 0.29141563 0.1931348 -0.24173827 0.11000014 0.16459535 0.21677397
0.21809684 0.3842591 0.23839855 0.15290444 0.18466507 0.28251657 0.29308715 0.19304442
0.24770148 0.41623047 0.22106324 0.32316893 0.22998892 -0.14215297 0.4042205 0.14222232
0.22393197 0.33164078 0.41931438 0.28018573 0.043689813 0.15481223 0.21952379 0.16249287
-0.23422673 0.21625021 0.32476267 0.15599245 0.16160044 0.3474874 -0.09031239 -0.018039076
0.29686022 0.23245047 0.31281 0.27370787 0.3778297 0.19783498 -0.08663237 0.29582807
-0.16634648 0.22204824 0.231122 0.19185966 0.33974653 0.27539295 0.25828004 0.24802877
-0.17449896 0.23822463 0.17184357 0.19592649 0.14703988 0.36673513 -0.17437251 0.0841463
0.23092616 0.27766576 0.47757837 0.11449499 -0.11240105 -0.017979922 0.20187674 0.3883031
0.3322414 0.33782738 0.050857402 0.2646544 0.44022095 0.2785141 0.23093483 0.31388444
0.333436 0.38666794 0.18273866 0.3860533 0.21556498 -0.20493862 0.3689343 0.319831
0.3301081 0.33604813 0.40605164 0.2638008 0.06721178 0.22204809 0.24357347 0.34325543
-0.16997564 0.2006166 0.28990173 0.23080972 0.29372868 0.35214806 0.05243029 -0.21866758
0.17088702 0.2394232 0.3605689 0.36629903 0.5288347 0.14331801 -0.12637793 0.19132221
-0.053825002 0.3050344 0.33138782 0.14543934 0.18481222 0.19999516 0.19523312 0.28465277
0.335374 -0.15361552 0.2778069 -0.31574604 0.35353905 -0.19794106 0.43349475 0.085236646
-0.05898702 0.034347754 -0.38377953 0.01501521 0.44824007 0.07720275 0.06295485 -0.076140635
-0.13389032 0.111523874 0.12830602 -0.11337631 -0.0837082 -0.07735337 -0.06889019 0.060579527
-0.23710695 -0.18062322 0.08618709 -0.3527084 0.12317523 0.6892016 -0.33591825 0.21581231
0.17143895 0.014472871 -0.75126946 -0.11302858 0.12583496 -0.1046062 0.082278244 0.0645649
0.5260646 0.12611966 -0.035711076 0.2320029 0.04163202 0.031524915 0.26083452 0.76990896
0.05684575 -0.44382718 -0.29212403 0.13094293 -0.23731506 -0.11691825 0.50060636 0.016923146
0.28206295 -0.022877732 -0.011400538 0.2485949 0.16988282 0.063937046 -0.076448865 -0.06669994
-0.17211905 0.39753014 0.20036274 0.1715431 0.08282665 0.43227082 -0.12713805 0.09170281
0.20998535 0.1584491 0.46528828 0.012589303 -0.20794906 0.12802172 0.15155633 0.21598709
0.3677542 0.41656974 0.06100537 0.27109283 0.22115026 0.3828441 0.41180864 0.31319234
0.3000835 0.5218724 0.37983552 0.28972292 0.046425287 -0.3352275 0.20751268 0.12868756
0.35391018 0.2852582 0.35825446 0.32724229 0.19571102 0.3454785 0.39313498 0.16251029
-0.0145442225 0.18008977 0.3316082 0.26422614 0.29470822 0.2897499 -0.07034656 -0.20880167
0.28559336 0.35065588 0.33656603 0.37052405 0.286649 0.26169503 0.06683877 0.19092284
-0.20086853 0.27813476 0.22780295 0.20077379 0.34314096 0.09966959 0.19799477 0.13454731

model.2.bias f4 [32]
00000000: 361e 8e3e 9cef a53e d009 4e3e b0cf f23d
00000010: 7f26 de3d 4d5c 893b b51c 903e 62f3 813e
00000020: 9fb2 93bd 8b53 3e3e 73c8 0b3e 3761 253e
00000030: 3c8a fc3d dfca 073e 77a7 4c3e 1ccc 573e
00000040: 4de9 463e 6677 b2bd 3727 193e c184 863e
00000050: 089c f43c 4e39 1c3d 8608 883e ed27 8a3d
00000060: f25a 883e f412 963e 2fb4 523b 3d08 9e3e
00000070: 4b08 10bc 280d 33bc 17fd 2ebe e946 433e
0.27757424 0.3240937 0.2012093 0.118560195 0.10847186 0.0041919113 0.28146902 0.25381
-0.07211804 0.18586557 0.13650684 0.16150366 0.123310536 0.13260983 0.19985758 0.21073955
0.19424935 -0.0871418 0.14956366 0.26273158 0.029859558 0.038140588 0.26569003 0.067458965
0.26631886 0.29311335 0.0032150855 0.3086566 -0.00879104 -0.01092843 -0.17088734 0.19070019

model.4.weight f4 [1, 32]
00000000: a399 d23e 97e1 9f3e 5656 41bf f006 b83e
00000010: e778 cfbf e53e 4ebf 866d 12bf 954f e43e
00000020: dec8 dfbf f1cf e43e e1e2 71bf cf13 dd3e
00000030: 970a 23bf bd86 45bf f610 db3e 0d13 d33e
00000040: c3d7 f33e 5549 56bf 32c4 f4bf 58b4 cd3e
00000050: 32af 26bf c127 1fbf 5708 c13e 1bb6 22bf
00000060: 4a10 bf3e 5888 c73e b84e 59bc a8a5 953e
00000070: fa96 47bf 87b8 53bf c373 0bc0 2546 2abf
0.4113284 0.312268 -0.75522363 0.35942793 -1.6208771 -0.8056472 -0.5719837 0.44591966
-1.7483175 0.44689897 -0.94486815 0.43179175 -0.63688034 -0.7715872 0.42786378 0.41225472
0.4762555 -0.83705646 -1.9122374 0.40176654 -0.65111077 -0.62170035 0.37701675 -0.6355912
0.37317115 0.3897121 -0.013263397 0.29227948 -0.77964747 -0.8270344 -2.1789405 -0.6651328
