models/mlp_option_pricing.pth (torch, 13046 bytes, 5 tensors)

model.0.weight f4 [64, 6]
00000000: 0c2a febe 7e05 db39 f1c8 aa3e d4e7 823d
00000010: 118c 99bd 0aed abbe 6d19 bebe 43cb d4bd
00000020: 9b3b 833e a028 09bd 6a94 5ebd 515b a1bd
00000030: 4109 f23e 2be9 a5bc 7cb2 d2be 22e4 f5be
00000040: db42 a73e 5c4f d33e 1f32 f2be 8e14 833d
00000050: ada1 9f3e 34a7 8d3e 306e 27bd 93f5 9fbe
00000060: 487e a63e 42fe 973e 04a0 063f 7900 ddbe
00000070: 05da bbbe e390 fa3d ec80 3a3e 231f 3d3e
00000080: 8c3e b7be 2b6e 8b3e 4fab f63d 040e 58be
00000090: 5736 5dbe b48a 3bbe cc0c f3be d201 7ebe
000000a0: 3287 993e cd05 6bbe c1c1 d63e 9b4d c8bd
000000b0: 68c4 76be c9fc d33e 89a7 bebe ff60 52be
000000c0: 2a98 9bbe 3f7d 043c 1e82 20be 6952 87be
000000d0: 5782 2ebe 1163 86be f2b3 f8be 01e1 b0be
000000e0: 5246 3ebe 2ae0 133f 7d57 82be 416f eebe
000000f0: 19e7 36be 01d8 893e 518c febe 2937 48be
00000100: 181c bebe 9a2f 4bbd 483d 053f 5807 0bbe
00000110: 5d87 f4be 6c23 6f3e 6796 c6be ec9e acbe
00000120: 4414 bebc a7ef cc3e 9c01 04bf 46ec 03be
00000130: e55e 80bc 717e f53e 3203 b63e 7354 6a3d
00000140: 2842 1bbe 15a7 3e3e 2279 a4bd 5688 f83e
00000150: ebf2 563d 06d8 b43e f9b6 01bf 4615 3f3e
00000160: ccc5 30be e5b3 80bd efb6 13bf 82b1 fb3d
00000170: fa7a 81bd dd89 153e 1c16 b93e 1ca6 eebe
00000180: 2f09 db3e 4bad 853e 47b7 f9be 933d b7be
00000190: e79c 1d3e ac7e 943e c918 b9bd 85b3 283f
000001a0: 3d57 02bf da1b a4be 3876 7bbd f493 95be
000001b0: 1851 d9be 3102 803e 9234 ab3e 3097 b6be
000001c0: 1ce6 99be e4e2 b33e 4354 32bf 1a2c af3d
000001d0: c229 3d3e f741 fb3e f6ed 163e 1074 95be
000001e0: 68bc 20be 1d99 7fbe d8cd e1bd 47b9 a73e
000001f0: 820e a8be 4908 d0be e135 20bd e217 c33e
00000200: 634c d53d 2c34 d93d b968 7bbc 5561 a5be
00000210: b9f5 04be 62bc 823e b887 83be 2d9e be3e
00000220: e6bd 42bc d08a d73e 1194 efbe 90bb 323d
00000230: 9999 eebe 2ee4 8b3e 4f7f 71be 38ec eb3e
00000240: c2fe d4be f36a be3d 4f8c f53e 82a9 b93e
00000250: a673 2d3e 9a33 71bb 4a84 49bd 0444 aa3e
00000260: 36ae bebe cd77 87be 37ab efbc 7ec9 743e
00000270: 6db5 3dbe b7e3 e93e b26f cabe b74d d3be
00000280: 8717 863e b5c3 4b3e dc19 5c3e 4dad ba3e
00000290: c306 cabe a827 1fbe 93dd 19be 0be6 803b
000002a0: fbc4 c23e 0cb9 4c3d 48e5 11be c99c 953d
000002b0: 2eeb c4be 75a8 bb3e 26b1 dabe 1e23 43be
000002c0: 3ae2 86be d58c a63e ad7b 773d 2f1f de3e
000002d0: 841f 343e 8cdf f83e e477 ecbe dd2b 3e3c
000002e0: 4ac6 88bc 84a0 7a3e 1e24 f63b 295b d13e
000002f0: 6361 b5be a4d4 7b3c 0d87 e43b 1ee3 b43e
00000300: 31fb a3be 8036 a7bd fa02 2c3e b642 94bd
00000310: a1cc d7be 6889 b9be 6278 b9be d9b0 343e
00000320: 67f5 e1be 1edc 173e e853 2dbe ec21 c33e
00000330: fe70 c7be c86b 6d3e 3ae1 64be 4a48 ba3d
00000340: ef1d dbbe f7a9 933c 1ece 793d 0e0b 9c3e
00000350: 556e 23be 629f 8f3e 423c f6bd 3a66 893e
00000360: 6fd0 85be 4afb 033e 276c 1b3f 14c6 913e
00000370: d0f2 bfbe 099e e23e 4651 a5be 8354 403e
00000380: 7f90 6fbe 1089 6c3e 0763 d4be 9b29 d43e
00000390: fa20 a73e 58de 743e c7d9 8cbe 3633 983d
000003a0: 0987 a4bd dba5 db3e 9beb f4be b1bb 7bbe
000003b0: 844f cf3d 19f1 dc3e 1c24 d7be 103e 943e
000003c0: 7f26 eabe 4c01 293d 2339 d43e 90f7 263e
000003d0: fad2 18bd b8c4 edbe ee20 a23d 10f9 f73e
000003e0: 1471 123f aabf bbbd 9308 eebe fab5 c43e
000003f0: 6560 093d 8d3d 70bd 6387 02be 9287 27bd
-0.49641454 0.00041775027 0.3335643 0.06391874 -0.07497419 -0.33579284 -0.37128773 -0.103903316
0.25631413 -0.03348601 -0.054340757 -0.07878745 0.47272685 -0.020252785 -0.41151798 -0.48025614
0.32668194 0.41271484 -0.47303864 0.06400405 0.31178036 0.27666628 -0.040876567 -0.31242046
0.3251822 0.2968617 0.52587914 -0.43164423 -0.36689773 0.12234666 0.18213242 0.18468909
-0.35789907 0.2723249 0.12044393 -0.21099097 -0.2160276 -0.1831463 -0.474707 -0.24805382
0.29985958 -0.22951432 0.41944697 -0.09780427 -0.2409836 0.41403797 -0.37237194 -0.20544814
-0.3038953 0.008086502 -0.15674636 -0.2643006 -0.17041908 -0.26247457 -0.48574787 -0.34546664
-0.18581513 0.5776392 -0.25457373 -0.46569255 -0.17861594 0.2692261 -0.49716428 -0.19552292
-0.3713081 -0.049605943 0.5204663 -0.1357702 -0.47759524 0.23353356 -0.38786623 -0.33714998
-0.023203023 0.4002659 -0.51564956 -0.128831 -0.01567025 0.4794803 0.35549313 0.057209443
-0.15161955 0.18618424 -0.08030917 0.48541516 0.05247776 0.35321063 -0.5066982 0.18660459
-0.17262954 -0.06284312 -0.5770101 0.12289716 -0.06322284 0.14603372 0.3614968 -0.46611106
0.42780444 0.26108775 -0.48772642 -0.35789165 0.15391885 0.29002893 -0.090379305 0.65898925
-0.50914365 -0.320525 -0.06139204 -0.29214442 -0.42444682 0.25001672 0.33438545 -0.35662222
-0.30058372 0.3513404 -0.69659823 0.085533336 0.1847296 0.49073765 0.14739212 -0.2919011
-0.15696871 -0.24960752 -0.1102559 0.32758543 -0.3282357 -0.4063132 -0.039113883 0.3810416
0.1041496 0.10605654 -0.015344792 -0.3230082 -0.12984361 0.2553435 -0.25689483 0.37230054
-0.011886096 0.42098093 -0.46792653 0.043635905 -0.4660156 0.27322525 -0.2358372 0.46078658
-0.41600615 0.09297743 0.4795861 0.36262137 0.16938648 -0.0036804439 -0.049198426 0.33255017
-0.37242287 -0.26458588 -0.029256446 0.23904988 -0.1852624 0.45681545 -0.39538342 -0.4127023
0.26189825 0.19898875 0.2149424 0.36460343 -0.39458284 -0.15542471 -0.1502593 0.0039336733
0.3804091 0.049981162 -0.1424762 0.07305295 -0.38460678 0.3665196 -0.4271328 -0.19056365
-0.26344472 0.3252932 0.06042068 0.43383166 0.17590147 0.48608053 -0.4618522 0.0116071375
-0.016696114 0.24475294 0.0075116297 0.40889862 -0.35425863 0.015370522 0.006974107 0.35329527
-0.3202758 -0.08164692 0.1679801 -0.072392866 -0.42148307 -0.36237645 -0.36224657 0.17645587
-0.4413254 0.14830062 -0.16926539 0.38111818 -0.38953394 0.23185647 -0.22351542 0.09095819
-0.42796275 0.018025381 0.060987584 0.30477184 -0.15960057 0.28051287 -0.12023212 0.26835805
-0.26135585 0.12888828 0.607119 0.28471434 -0.3748994 0.44261196 -0.3228857 0.18782239
-0.23394965 0.2309916 -0.41481802 0.41437992 0.32642347 0.23912942 -0.275099 0.07431643
-0.080335684 0.42899975 -0.47836003 -0.24583317 0.10122588 0.43152693 -0.42019737 0.289536
-0.45732495 0.041261002 0.41449842 0.16305375 -0.037310578 -0.46439147 0.07916437 0.48432207
0.57203794 -0.091674164 -0.46490917 0.38420087 0.033539195 -0.05865245 -0.12746958 -0.040900774

model.0.bias f4 [64]
00000000: 7ac4 31be 00f7 2dbf c9f4 123e 9ff4 833e
00000010: 9111 b33e ec1e 323e 8972 b13e 58bb 9dbe
00000020: 0cc1 ea3e 5510 98bc c3ae 293e b828 abbd
00000030: 99c9 1b3e b964 833d 0204 d33e f836 7e3d
00000040: 6f2f 8f3e 049b 843c d30e 923e 098c c3be
00000050: 9328 99be b179 aebd 68a0 d73d a2ed b23e
00000060: 172c 92be f417 1cbe 747d b73e 2af9 993e
00000070: 5c85 4dbd 6496 b03e 32b1 8a3e b564 463b
00000080: 7f8e 6d3c b902 cebd 1319 e4bd fc5c 783e
00000090: c8d9 bb3d f996 bebd 18dc 4dbe 5b72 ca3e
000000a0: 8725 543e 6d66 f63e 465f a43e 93aa e2bd
000000b0: a62b b9be 8978 883d ef89 b7be 85f2 823e
000000c0: a39a f93e 43aa d33e 4334 e7bd c31d ab3e
000000d0: f1a2 7bbe 6166 ad3e 4e48 aebe 467a a2bd
000000e0: f613 c03e 8951 b83d 93fe 843e 038a 973e
000000f0: 62f6 1bbf 03c0 963d 9bbd cb3c 119f 883e
-0.17360106 -0.6795502 0.1435119 0.2577257 0.3497434 0.17394608 0.34657696 -0.30806994
0.45850408 -0.018562475 0.16570573 -0.08357376 0.15213622 0.06415696 0.41213995 0.06206414
0.27965876 0.016187198 0.28526935 -0.38192776 -0.29913768 -0.085193045 0.10528642 0.34946924
-0.28549263 -0.15243512 0.358379 0.3007291 -0.05017601 0.3448974 0.27088314 0.0030272428
0.014499306 -0.10059113 -0.11137595 0.2425422 0.09172398 -0.093061395 -0.2010349 0.3954037
0.2071744 0.4812502 0.32103938 -0.11067691 -0.36166114 0.06663615 -0.35847422 0.25575653
0.4875079 0.41340837 -0.11289265 0.33421144 -0.24573876 0.3386717 -0.3403954 -0.07933478
0.3751523 0.089999266 0.25975475 0.29597482 -0.60922825 0.07360842 0.024870684 0.26683858

model.2.weight f4 [32, 64]
00000000: 9b91 8c3e 339a 763e 1ba7 493e 8e30 373d
00000010: 4893 2e3e 638e 9abd bd53 513d 6794 4abe
00000020: 8cde 14bc 46ca 163e 9b2a 473e c692 90be
00000030: 3a45 2d3e 1985 e53d 3755 103e c172 643e
00000040: c62f 6f3e 0e1a 77be a515 643e a835 5b3e
00000050: bcd3 1f3e acba e93c df75 3d3e 15d3 5f3e
00000060: 3ddf c73e 5f9f 113e 1564 633d 6729 593e
00000070: 25b8 3d3e bed8 553e 2b54 f53c 1921 533d
00000080: 2b67 933e 010d a23d fa0f 4e3e 1a03 273d
00000090: a571 703e 63e3 783e 8c3c 0b3e 200e 3d3d
000000a0: bf6d 063e 2395 4f3d 78ba 903c 647e 4d3d
000000b0: 71f4 e43d 6a4e 9e3d a908 453e 287a 6a3e
000000c0: ac7e cebd 6ce9 3a3e e4ff d13d 7cf7 1fbe
000000d0: b71f fb3d be52 143e 4cd3 a83e fb88 083e
000000e0: 61ba 27be 2731 183e 01ef b0be 1430 983c
000000f0: 55b5 623e edf0 433e 338d 6e3e c4d1 0abc
00000100: 3f12 b63e d315 823e c059 c23c ff3a 5e3e
00000110: ed37 7a3e 00de e53d e0ba 2cbe bf62 debd
00000120: 7422 e83d 86b8 923e 8180 913d 0365 33be
00000130: 1955 983d d503 883d 7df0 843d 1980 903d
00000140: ad71 aa3d 348b 2bbe af74 d33d 92c3 b43e
00000150: f7b1 5f3e 2dd3 4d3d 216f 223e 41c3 203e
00000160: 9bd5 873e 5ade d73d d462 b1bc 4aef 3f3e
00000170: 0720 143e 54a0 3b3d 1bf9 6b3d c341 763e
00000180: 9858 5e3e d289 513d 0d87 053e b8bc f73c
00000190: 79f1 9a3e 2c7c 223e 7abd 8a3e 1047 833e
000001a0: 8a89 5a3e f5b3 523e b0be 0b3e 81f2 473e
000001b0: 6397 873e ae43 413e 9e81 933e eee5 273c
000001c0: 65c7 89bd d6f5 08bd 53d9 a03e 3e6c 5bbe
000001d0: 6566 323e 7273 a33d 6ac1 e43e 92d2 d73d
000001e0: 5c6c a0bd c67c 5f3d 636a ecbe 85df c03d
000001f0: 9b32 a13e 9467 373e 9d80 263d 37cc 153e
00000200: 8a37 89bd 146b 653d 51b6 e0bd 7c0d 943d
00000210: 5bd9 89bd 1d70 22bd 4e6f 1cbe 6cae 833d
00000220: e7d7 4cbd fbba 6f3d 531a adbd 412e d93c
00000230: 171a 87bd 5d53 853d 04a0 48bd 6f95 c2bd
00000240: 8439 53bd a01a ad3d 2982 493c 0c56 a8bd
00000250: 6e0c 13be e005 eb3c 8fd6 a1bc e9ae df3c
00000260: 9386 11be 5c7a 353d 8375 b83d 5960 26bd
00000270: e7c2 a13d e9f5 1a3d e7e3 a03d 8c37 95bd
00000280: 21bc a63c ade9 d13b d3a9 c2bc 6d44 32bd
00000290: 0388 843d 6b34 e4bd e3d4 a3bd 6dbb 853d
000002a0: cc64 6d3d d6df f2bd 12f7 2f3c dc76 d13d
000002b0: 1984 7f3d 8f86 adbd 3c37 fabb 2da9 3ebc
000002c0: e440 813d da07 8dbc b255 30be 1889 9dbd
000002d0: 32a9 24bd 4a7a e4bc 5521 8cbd 2b09 743d
000002e0: 3443 7abd d180 08be cfb4 14be 519a 07be
000002f0: e8d5 30bd c71f 4ebd 0435 193d fa23 a33c
00000300: 07af d5bb 2482 eabd 5552 88be 1f13 82bd
00000310: 785b 50bf 659f 893d cf3e df3e 78a9 7b3e
00000320: c5a2 663e f3e9 85bd 6dd4 ef3c 108a 6d3e
00000330: a251 3d3c 0886 9bbd 9067 5c3e 2c83 3e3e
00000340: 2f9b 9c3c babd 053f 861d 1cbe 024f 1d3d
00000350: 58fa 89bb ff3e c03d 3fa2 56bd e67c a2bd
00000360: 6958 41be fc69 9a3d ee14 a03e 8f18 093d
00000370: e367 cdbe 04ab 063e 4068 8b3e 0dcc da3c
00000380: 8788 8abd a186 94be 5535 82be 8d42 3a3d
00000390: 0064 38bf 5882 63be 7288 f53d e215 94be
000003a0: e9c6 e6bc 31da a6be 2106 91bd e9f7 683e
000003b0: 289d ebbe 0417 cbbe 9928 11bf b66d 343d
000003c0: b26a 333f b940 02bf a612 e53c 9b54 9d3e
000003d0: cb10 2bbd 4e9e 953e 878a f4be b987 6e3d
000003e0: 9708 453f 19d1 99be 6dcd 2c3e a216 023e
000003f0: 7115 99be 97c9 1abe 8ad6 54be d556 433e
0.27454838 0.2408226 0.19692652 0.04472404 0.17048371 -0.07546689 0.05110525 -0.19783174
-0.009086262 0.14725599 0.19449846 -0.2823698 0.16920939 0.11207027 0.14095007 0.223094
0.23358068 -0.24131033 0.22273882 0.21407187 0.15608114 0.028531395 0.18501996 0.21857865
0.39037505 0.14220951 0.055515368 0.212072 0.18527277 0.20883462 0.029947361 0.051545236
0.28789648 0.079126365 0.20123282 0.040774442 0.23480852 0.24305491 0.13597316 0.04615605
0.13127802 0.050679337 0.01766704 0.050169364 0.11179436 0.077298 0.19241585 0.22898161
-0.100827545 0.18253106 0.102538854 -0.15621752 0.122619085 0.14484689 0.32973707 0.13333504
-0.16379692 0.148625 -0.34557346 0.018577613 0.22139485 0.19134875 0.2329605 -0.008472864
0.35560796 0.25407276 0.023724437 0.21702193 0.24435396 0.11223984 -0.16868162 -0.10858678
0.113346964 0.28656405 0.07104588 -0.17519002 0.07438106 0.06641356 0.06491182 0.07055683
0.08322463 -0.1675232 0.1032499 0.35305458 0.21845232 0.05025022 0.15862705 0.15699483
0.26530156 0.10540457 -0.02165357 0.18743625 0.14465342 0.045807198 0.057610612 0.24048524
0.21713483 0.051156826 0.13039799 0.030241355 0.30262354 0.1586768 0.27097684 0.25640154
0.2134153 0.2057646 0.1364696 0.19526102 0.26482686 0.18873474 0.28809828 0.010247691
-0.067274846 -0.033437572 0.31415805 -0.2142801 0.17421873 0.07981004 0.44678813 0.1053821
-0.07833168 0.054562353 -0.46174917 0.09417633 0.3148392 0.17910606 0.04065 0.14628683
-0.06700046 0.05601032 -0.10972274 0.072291344 -0.067309104 -0.0396577 -0.15276834 0.06429753
-0.050010588 0.058527928 -0.084522866 0.026511313 -0.06596773 0.06510041 -0.048980728 -0.095011584
-0.051568523 0.08452344 0.012299099 -0.08219537 -0.1436021 0.028689325 -0.01975563 0.027305083
-0.14211492 0.044306144 0.090067886 -0.040619228 0.07898503 0.037832174 0.07855969 -0.07285985
0.020353379 0.00640603 -0.02376262 -0.043522287 0.06471255 -0.111428104 -0.07999589 0.06529889
0.057957456 -0.118590996 0.0107400585 0.10227749 0.062381838 -0.08472931 -0.007635979 -0.011637014
0.06311205 -0.017215658 -0.1722019 -0.07692164 -0.04020042 -0.027890343 -0.06842295 0.059579056
-0.061099246 -0.1333039 -0.14522098 -0.13242461 -0.043172747 -0.050323274 0.037404075 0.019914616
-0.006521109 -0.114506036 -0.26625314 -0.06351303 -0.8138957 0.06719855 0.43602607 0.24576366
0.22523029 -0.06538763 0.029276097 0.23197198 0.011555107 -0.07593924 0.21523881 0.18604726
0.019116966 0.52242625 -0.15245637 0.038405426 -0.0042107515 0.093870156 -0.052400824 -0.07933979
-0.18881382 0.07539746 0.31265968 0.033470687 -0.40118322 0.13151175 0.27227974 0.026708627
-0.06764322 -0.29008964 -0.25431314 0.045473624 -0.7202759 -0.22217691 0.119889155 -0.28922945
-0.02817102 -0.32588342 -0.07081247 0.2275082 -0.46018338 -0.39665997 -0.5670257 0.04404994
0.7008468 -0.5088001 0.027962994 0.3072861 -0.041764062 0.2922234 -0.47761938 0.058234904
0.7696623 -0.3004234 0.16875239 0.12703946 -0.2989917 -0.15115963 -0.20784965 0.19076093

model.2.bias f4 [32]
00000000: 1afa 673b 1b8e f63d 04fe d53b 40f1 743e
00000010: 46b9 16be 2088 80bd 7e0c 893d cace ac3c
00000020: 32a0 9d3c 81df cabd 948d 503d db55 0d3d
00000030: b410 223d f3ce fb3c bb26 163e a601 da3c
00000040: 0b47 d0bc 4810 ca3c 031e 423e 2c0a 3a3e
00000050: 2620 983d 3064 d9bd 7cf2 a93d 6658 59ba
00000060: 3127 063d 3f9a e4bc 7769 533d 5698 803d
00000070: aa0b 833d 63a3 c63d 1ec3 3439 7f9f 03bc
0.0035396875 0.12038823 0.006530525 0.23920155 -0.14719114 -0.06275964 0.06691836 0.021094698
0.019241426 -0.09905911 0.05091627 0.034505706 0.03956671 0.03073833 0.14663212 0.026612114
-0.0254245 0.024665967 0.18956761 0.18167943 0.07428007 -0.106148124 0.08298203 -0.00082910655
0.03275222 -0.027905582 0.05161425 0.06279056 0.06398709 0.09699132 0.00017238825 -0.008033632

model.4.weight f4 [1, 32]
00000000: 6985 873e a533 533e fc7e b8bd f3d4 82bf
00000010: f783 91bd 3895 cd3e 9f59 00be b078 08bf
00000020: c7e8 efbd 99f3 0ebe da5f 853e cd2e 763e
00000030: a52c 7d3e 07d5 a9bd 4c8c 323e 9b5d 25bf
00000040: 13e7 a53e e9f1 673e 71ec bebf c07d 773e
00000050: e327 b93e 3d4e 4abb edce 643e 3120 aa3e
00000060: 742b babe 8f9f 8f3e 34ed 7c3e 28c2 713e
00000070: 3e7d c3be 264b 38bf 5e58 cebd 847d 833e
0.2646897 0.2062517 -0.09008595 -1.0221237 -0.071052484 0.40152907 -0.12534188 -0.53309155
-0.11714321 -0.13960113 0.2604969 0.2404129 0.24724062 -0.08292585 0.17436332 -0.64595956
0.32402858 0.22650875 -1.4915906 0.24169064 0.36163244 -0.0030869388 0.22344561 0.33227685
-0.36361277 0.2805142 0.24699861 0.23609221 -0.3818149 -0.7198967 -0.100754485 0.25681698
