models/mlp_option_pricing.pth (torch, 13814 bytes, 5 tensors)

model.0.weight f4 [64, 9]
000000 b3 09 82 be 2b d9 09 3e a1 a2 b8 3e 71 f8 f2 3e
       -0.25398025 0.1346175 0.36061576 0.4745517
000010 51 8c 2a be d3 6d d7 bd 7d 3d 81 be 73 66 53 3e
       -0.16655089 -0.10518994 -0.25242224 0.2064455
000020 21 ca 82 be d0 1d e1 3c be 0a 7b 3e d6 44 ca be
       -0.25544837 0.027480036 0.24515817 -0.39505643
000030 17 d7 4c be 9c f2 b0 bd d6 3c 14 bd 1f 17 c9 be
       -0.20003925 -0.08640024 -0.03619083 -0.39275452
000040 34 34 e8 be 22 ba 47 bd 5c 29 07 bf 02 de ca 3d
       -0.45352328 -0.048761494 -0.52797484 0.09905626
000050 02 78 c4 3e ec e1 38 3e 6c bd 10 be 62 58 67 be
       0.3837281 0.18054932 -0.14134759 -0.22592309
000060 68 fc fc 3e 24 30 05 3e fe c3 d8 3d 31 5a 61 be
       0.4941132 0.13006645 0.105842575 -0.22007062
000070 cd 9f a0 3e 54 b1 1a 3e 39 3e 91 bd 2c d7 07 3e
       0.31371918 0.15106708 -0.07091946 0.13265675
000080 62 62 15 3e 46 0d 76 3e a3 43 cf be 9f cd 81 3e
       0.14588311 0.24028501 -0.4048129 0.2535219
000090 f5 46 fb 3e 1c 16 6a be 72 d1 d4 bd 2f fa 8d be
       0.49077573 -0.22859997 -0.10391511 -0.27729937
0000a0 57 14 62 be 0d 1a 70 3d 24 01 1c bd 00 5c a3 bd
       -0.22078072 0.058618594 -0.038087025 -0.07976532
0000b0 d5 b6 f2 3e 25 21 75 be 76 a7 a2 be ad c3 91 be
       0.47405115 -0.23938425 -0.31768388 -0.284696
0000c0 49 98 af be 00 8e 6d be fa c7 ec bd 6f 02 ad 3e
       -0.34295872 -0.231987 -0.1156158 0.3379092
0000d0 5e 9b b2 3d 55 f4 e0 bd 36 2f 04 be 33 02 05 be
       0.0872104 -0.10984103 -0.12908635 -0.1298912
0000e0 d2 ac c5 be 7c 36 1b 3e ff 0c a8 3d e0 78 c1 3e
       -0.38608414 0.15157503 0.08205604 0.37787533
0000f0 2d 20 38 be 43 7e 55 be 93 1a e7 3e 6e 9c bc bd
       -0.17981024 -0.20848946 0.45137462 -0.09209524
000100 78 5c 78 3e a5 8d 91 be f8 a1 3a 3e b3 58 72 be
       0.24254024 -0.2842838 0.18225849 -0.23666649
000110 9c 87 c2 bd a9 4a 83 be c8 d6 d3 be d2 2b c0 3e
       -0.09498522 -0.256429 -0.41374803 0.37533432
000120 52 15 b6 be be fe c7 be 81 55 6d be f1 88 d7 bd
       -0.3556314 -0.3906154 -0.23177148 -0.105241664
000130 e7 90 fa 3d 7a 4c 9f be 6c dd 2c 3e 66 ed 72 bd
       0.12234669 -0.31113034 0.1688134 -0.059308432
000140 4c a4 21 bd 4c 23 dc be f4 7f 8b bd 93 e1 0d 3e
       -0.039463326 -0.4299568 -0.068115145 0.13855581
000150 ab 9d d0 bd 67 ea b5 be 11 7b 04 3f c6 2e 6a bd
       -0.10186323 -0.35530397 0.51750284 -0.057173513
000160 86 50 b9 bd cc 48 dd 3e f9 99 ca be 88 72 4a be
       -0.09048562 0.43219602 -0.39570597 -0.19770253
000170 e2 9f a9 3c 9d 4b ef bd 02 84 51 3c b3 83 93 bd
       0.02070612 -0.11684344 0.012787821 -0.07202854
000180 77 f5 4a 3c 35 58 c0 3e 40 a2 8f bd cf 4f 90 be
       0.012387625 0.37567297 -0.070133686 -0.2818589
000190 3e 0a af 3d d0 68 1e 3e 42 73 87 be a9 e3 bd bb
       0.085468754 0.1546967 -0.26455122 -0.0057949615
0001a0 9a db b8 be 01 ea c4 3d c6 10 98 3e 29 ec 4c 3d
       -0.36105043 0.09614945 0.29700297 0.050029907
0001b0 8f 96 55 be f8 7e 8d 3e bd 42 90 be e3 02 01 be
       -0.20858215 0.27635932 -0.28175917 -0.12598757
0001c0 f3 a0 8a be 92 b1 e5 3c 19 59 65 3e c0 7f bc bd
       -0.2707592 0.028038774 0.2239727 -0.09204054
0001d0 69 2e 4b bc 47 e5 cf 3e 55 90 81 bc 42 d0 42 bd
       -0.012401202 0.40604612 -0.015815893 -0.04756189
0001e0 dd 16 92 3e a4 05 49 bd 46 7c 2b 3c a1 38 cd be
       0.28533068 -0.049077645 0.010466641 -0.40082267
0001f0 b3 86 97 be 8b d2 bc 3e ca 91 82 bd 6e 95 83 3e
       -0.29594955 0.36879382 -0.06375463 0.25699943
000200 1f 58 ee 3b 06 d1 85 be b4 34 30 bd 42 9a a9 bc
       0.0072736884 -0.26136035 -0.04301901 -0.020703439
000210 e5 99 9e bd ad be e6 be 91 df fb 3e fe 4a d4 be
       -0.07744197 -0.4506735 0.49194005 -0.41463464
000220 d0 2e 2f be 50 c5 dc be 4d a3 99 3d ed 10 ab 3e
       -0.17107701 -0.43119287 0.0750185 0.3341135
000230 1e 7f a9 bb 84 f6 f9 bc da 64 a0 be ba 55 09 be
       -0.0051726243 -0.030513056 -0.31326944 -0.13411608
000240 bc 8d ab be ee d1 c2 3e 9f 91 04 be e8 42 cb 3d
       -0.33506572 0.3805079 -0.12946175 0.09924871
000250 ca e8 07 3e c4 69 c7 3e ca 78 54 3e ec 1e 4a 3e
       0.13272396 0.3894788 0.20749202 0.19738358
000260 f4 a7 f3 3d a0 48 aa be 3f 13 04 be 38 ef 56 3e
       0.11897269 -0.33258533 -0.12897967 0.20989692
000270 c8 7a b5 be a4 21 86 be be 7b ac be c2 1b ac be
       -0.35445237 -0.2619754 -0.33688158 -0.33614928
000280 8a 09 7a 3d 3e c0 76 bd b6 cf 36 be 26 09 cf 3e
       0.061044253 -0.06024193 -0.17852673 0.40436667
000290 5b d6 6c 3d eb 9e 70 3e a2 d0 4d 3e 02 cb d7 bd
       0.057821613 0.23498122 0.20099118 -0.105367675
0002a0 ec 77 b8 3e 98 03 81 be 93 04 25 bd 4b 7b b6 bd
       0.36028993 -0.25198054 -0.040287565 -0.08910235
0002b0 02 29 c7 3e 8c 3b 6e be c4 96 da 3e f3 dd 54 bd
       0.38898474 -0.23264903 0.4269315 -0.05196948
0002c0 11 69 9d 3e 08 23 4e 3d 23 c4 bc be 3f 7c 92 be
       0.30744222 0.050326377 -0.3686839 -0.28610417
0002d0 fd 7b e9 3d af 53 22 3d c4 37 74 be 76 2e 93 be
       0.11400602 0.03963059 -0.23849398 -0.28746384
0002e0 24 05 40 be f0 44 eb bc c7 17 2a be 96 c4 e5 be
       -0.18751961 -0.028719395 -0.16610633 -0.44876546
0002f0 4d c7 3e 3e db b5 b6 3e cd d0 45 be 44 7b 46 bc
       0.18630715 0.3568562 -0.19317932 -0.01211435
000300 26 2a 8a 3c b2 a3 02 3f 8b 3c a4 3e 05 b5 bf be
       0.016865801 0.5103103 0.3207744 -0.37442794
000310 32 1a 86 bd 24 f6 98 3e cf 1f 9f be 0b f9 a7 be
       -0.06547965 0.2987529 -0.31078956 -0.32807192
000320 a0 95 7a 3e 09 8a 93 be 6b f2 38 be d2 b5 9d bd
       0.2447114 -0.2881625 -0.18061225 -0.07700695
000330 7a bf aa 3e 08 89 6f bb c2 ab ee bd d3 41 de be
       0.3334921 -0.0036550183 -0.11653854 -0.43409595
000340 68 89 58 be d5 35 5c 3e 2d c0 ab bd 16 ae e5 be
       -0.21146166 0.2150491 -0.08386264 -0.4485938
000350 01 fc aa be 44 05 16 3e 50 49 ad be 0b 52 96 3e
       -0.3339539 0.14650446 -0.33844995 0.2935947
000360 05 a6 e6 3e 60 4e 40 3e 9d b6 a1 3e ff 5d 8d be
       0.45048538 0.18779898 0.31584635 -0.27610776
000370 0e 3d 50 bd cf 4d e3 3c 46 40 7e 3e a3 06 0c 3e
       -0.050839476 0.027747063 0.24829206 0.13674407
000380 7a aa 56 be 5d f9 b0 be 9e 23 a6 bd 70 c5 fe 3a
       -0.20963469 -0.3456525 -0.08112262 0.0019437503
000390 13 fa 8d 3e bd 54 ad be 6d 3c 28 3e 2f 49 91 3e
       0.27729854 -0.33853713 0.164293 0.28376147
0003a0 40 cf 4c bc 3e 2a 68 be e4 f5 2b 3e 57 0c e1 bd
       -0.012500584 -0.22672364 0.16793019 -0.10988682
0003b0 9e 5a c5 be 7d ba 5d 3e 01 f7 8e 3e 90 81 57 be
       -0.38545698 0.21653171 0.27922824 -0.21045518
0003c0 80 31 9f 3e 88 db f2 3d 17 76 03 be 0b 8e 2b 3e
       0.31092453 0.118582785 -0.12838016 0.16753404
0003d0 51 e4 6e 3e d1 41 c4 be 16 54 4c 3e fa 5c d5 bd
       0.23329283 -0.38331464 0.19953951 -0.104181245
0003e0 30 ac 1e 3e 77 25 41 be 83 cc e1 be 8d 63 8a 3d
       0.15495372 -0.18861948 -0.44101343 0.06757269
0003f0 f4 6e de bd 83 0a 5c 3e 14 32 08 be d0 b0 6f 3e
       -0.108610064 0.21488385 -0.13300353 0.23407292

model.0.bias f4 [64]
000000 98 8a 23 bd c0 f1 be 3e 96 43 24 be 5d 0b c4 3e
       -0.039927095 0.37293816 -0.16041407 0.3828992
000010 08 cf fb 3d 3c bc 6b 3e 0f ce b9 3e f0 9d 96 3e
       0.122953475 0.23021024 0.36290023 0.29417372
000020 28 d8 90 3e 1e 4e 42 3e 4a 36 9b be 5d 94 48 be
       0.28289914 0.18975112 -0.30314857 -0.19587846
000030 76 5e cc 3e f6 e6 e3 3e d5 43 8c bd 49 7a 6e bd
       0.39915818 0.44512147 -0.068488754 -0.05822209
000040 52 c3 5b 3e c3 88 20 be 6b 20 77 be 10 5d 7f 3e
       0.21461228 -0.1567717 -0.2413346 0.24937844
000050 16 42 01 3e 79 28 10 be cb 10 c4 3e 2f 0a 12 3e
       0.12622866 -0.14077939 0.38294062 0.14261697
000060 d8 ba 9c 3e d4 77 47 be 89 b9 92 bd 7e c8 ad 3d
       0.306113 -0.19479305 -0.07164294 0.084855065
000070 a5 2e 50 3e 17 1f be be 36 f3 b0 3b ba 4c 57 3e
       0.20330293 -0.37133095 0.0054000868 0.21025363
000080 ef e5 dd 3e a4 2f c4 3e ef db 0a 3e 9b f7 da 3c
       0.43339488 0.38317597 0.1356046 0.026729396
000090 2a 8e 6a bd 2b 7f 8d 3d 7d 95 25 3e ec 27 c9 3d
       -0.057264484 0.06909021 0.16170307 0.098220676
0000a0 dd 43 14 3e 21 80 9b be 2a 5f 9c 3e c8 26 a5 bd
       0.14479013 -0.30371192 0.30541354 -0.080640376
0000b0 ab 07 5d 3e aa 1c a5 3e 57 b1 d0 3e cb c8 9c 3e
       0.21584956 0.3224843 0.407603 0.30621943
0000c0 21 89 b9 3e 32 86 42 3e 0b e2 1e be 57 6d c0 3e
       0.36237434 0.18996504 -0.15515916 0.3758342
0000d0 5f b6 bd 3e 51 9c bb bd 7d d4 be 3c 11 a2 81 be
       0.370532 -0.09160674 0.023294682 -0.2531896
0000e0 07 08 3e 3e de d4 8d 3e e6 91 cb 3e 41 30 cb 3e
       0.1855775 0.27701467 0.3975975 0.39685252
0000f0 0b de 59 bb 56 31 22 bd 70 b6 08 be 88 55 7a bc
       -0.003324392 -0.03959783 -0.13350844 -0.015279181

model.2.weight f4 [32, 64]
000000 f1 00 18 3e f8 5a 1d 3e ed a1 c6 3e e4 92 83 3e
       0.14844109 0.15366733 0.38795415 0.25698006
000010 e3 0d 3f 3e 5f e9 68 3e 67 a2 03 3e cd 4f e5 3d
       0.18657641 0.22745274 0.1285492 0.111968614
000020 c6 2e 27 3e fe ca 43 3c f2 32 16 3e bf 3d 77 3e
       0.16326436 0.011950253 0.14667872 0.24144648
000030 58 52 13 3d bb df 34 3e 41 a7 92 3d 2b 71 fb 3d
       0.0359672 0.17663471 0.071608074 0.122774445
000040 c0 72 40 3e b2 99 30 3e 3d 92 93 3e ef 0e 6d 3e
       0.18793774 0.1724613 0.28822508 0.23150228
000050 e5 00 cd 3d 08 44 a7 3e 21 f3 3e 3e dc e0 cb 3d
       0.10009936 0.3266909 0.18647434 0.09954998
000060 0a 10 42 be c3 ee ef 3e 98 00 11 3d f9 c8 97 3d
       -0.18951431 0.46861848 0.035400957 0.07411379
000070 7c fb 54 3e 14 56 43 3d 75 e6 83 3e 7b 05 27 3e
       0.20799059 0.047689512 0.25761762 0.16310684
000080 41 92 6b 3d 3f fd 29 3e f0 3c 5d 3e ed 3f 0b 3e
       0.057512525 0.16600512 0.21605277 0.13598605
000090 ae 9e b1 3d fa e0 8c 3d 2a 27 01 3e 8c 12 ef 3d
       0.08672844 0.068788484 0.12612596 0.116734594
0000a0 ed b3 e2 3d cc 21 fe bc 60 83 eb 3d 11 0c fc 3d
       0.11069474 -0.031021975 0.11499667 0.12306989
0000b0 57 35 92 bb c2 98 92 3e 1e b9 b8 3d 17 ef 34 3e
       -0.004461925 0.2863217 0.09019683 0.1766933
0000c0 01 2d 72 3d 13 19 13 bd ec 9e 34 bb 39 c2 3d 3e
       0.05912495 -0.035912585 -0.0027560545 0.18531121
0000d0 0b ff a2 3d e1 e0 d8 3d cb e1 c9 be cb 6c 9d 3d
       0.07958802 0.10589767 -0.3943008 0.07686766
0000e0 b8 f1 32 3d 47 f5 a3 3d 01 39 dd 3d 11 0e 75 3d
       0.043687552 0.08005767 0.10801888 0.059827868
0000f0 c5 fa 2d 3e 79 08 ec 3d 37 86 20 3e 74 13 bb 3e
       0.16990192 0.115250535 0.15676199 0.3653828
000100 06 39 02 3e b3 f9 a7 3d fa fd ac 3e 2b 7d 4e 3e
       0.12717065 0.08201923 0.3378752 0.20164935
000110 20 58 1d 3e 3f 1c 46 3e 96 9a 5e 3e 9e 08 0c 3e
       0.15365648 0.19346713 0.21738657 0.13675162
000120 0b e6 38 3e 94 68 a0 3d 94 d4 87 3e 2c ed 7e 3e
       0.18056504 0.07832447 0.26529372 0.24895161
000130 33 ea 0e 3d ee 0f 95 3d 71 54 3a 3e b0 95 8a 3d
       0.03489132 0.07278429 0.18196274 0.06766832
000140 ed 6d 69 3d df 96 b4 3d 0e 70 0f 3e 71 71 35 3e
       0.0569896 0.08817839 0.14007589 0.17719056
000150 2f d6 44 3e 36 e2 cb 3e ef 90 82 3e c4 b7 60 3e
       0.1922233 0.39821023 0.255012 0.21945101
000160 a6 a8 42 bd d0 a5 dc 3e 4b 1d 63 3c 14 9d fb 3d
       -0.047524117 0.43095255 0.013861964 0.1228582
000170 cd be 8f 3c 86 fd 8f bc fa b4 e0 3d 24 52 93 3d
       0.017547036 -0.017576944 0.109720185 0.071934015
000180 29 33 1c 3e d0 77 49 3e 88 b2 3e 3c b4 65 f3 3d
       0.15253891 0.19674611 0.011639245 0.11884633
000190 72 09 12 be 67 33 3c 3e eb c9 02 3e 46 b4 26 3d
       -0.14261416 0.18378983 0.12772338 0.040699266
0001a0 dc b8 1b 3e 20 a9 8c bd d3 3c 79 3b c8 1c 70 3e
       0.15207237 -0.068681955 0.0038030639 0.23448479
0001b0 4c 21 0a 3e da 91 4c 3e 94 8a ac 3d db 87 b6 3d
       0.13489264 0.19977513 0.08424869 0.08912631
0001c0 ab d0 84 3d 59 31 18 bd 4e 35 c0 3c 29 77 ac 3c
       0.06485113 -0.037156437 0.023462918 0.021052914
0001d0 03 eb fb 3c ac e0 93 3d 89 f2 c1 be b1 23 e8 3d
       0.03075171 0.07220587 -0.37880352 0.113349326
0001e0 1b a2 2e 3e a4 14 4a 3e c0 5e 2e 3e 69 3b 18 3d
       0.17054026 0.19734436 0.17028332 0.037166033
0001f0 e9 60 f9 3d ce bf c1 3d c6 6f b5 3d a2 1b dc 3e
       0.12176687 0.09460412 0.0885921 0.42989832
000200 10 9d 3c 3e a4 49 00 3e bc 94 73 3e 22 8c 7b 3d
       0.1841929 0.12528092 0.23787206 0.061412938
000210 60 df 91 3e 60 51 99 3d 21 7e e3 3d b0 25 ba 3d
       0.28490734 0.07486224 0.111080416 0.090892196
000220 f2 60 2d 3e e4 c4 dd 3d ed 6b 6b 3e 69 6d 83 3e
       0.16931513 0.108285695 0.22990389 0.2566941
000230 54 98 06 3e 82 94 02 3d 4f 8e ac 3d 96 68 7e 3d
       0.13144046 0.03187991 0.08425581 0.06211146
000240 49 34 59 3e b8 c7 2a 3e 98 e2 17 3e bb 39 5c 3d
       0.21211351 0.16677749 0.14832532 0.053765994
000250 ee 8e 20 3e da 54 96 3e a6 2c 8f 3e 92 7a 61 3e
       0.15679523 0.29361612 0.27963752 0.22019413
000260 42 90 05 be 17 af c6 3e 70 3a 02 3d 6a 11 46 3e
       -0.13043311 0.38805458 0.03179401 0.1934258
000270 5c b5 db 3d 62 fa 07 3e c0 b9 08 3e a6 4f 2c 3d
       0.10727951 0.13279107 0.13352108 0.042068146
000280 6e 2b b9 3d 45 bf 56 3d 7e 56 4f 3e 7d e1 4a bd
       0.09041487 0.052428503 0.20247838 -0.04953145
000290 1f ed eb bd ec 07 72 3d 10 23 41 3d f8 97 99 3d
       -0.11519837 0.059089586 0.04715258 0.07499689
0002a0 fb 61 06 3e bc ef dc 3d 0e d1 74 3d d4 fc 17 3e
       0.13123314 0.10787913 0.059769683 0.1484254
0002b0 e4 c3 55 3d c8 76 e9 3d 95 46 c9 3d 88 36 1f 3e
       0.05218877 0.11399609 0.098279156 0.15548146
0002c0 13 4f 2f 3d d3 45 41 bd 1d a2 2c 3d a5 9e 3e 3e
       0.04280002 -0.04718573 0.04214679 0.18615206
0002d0 b0 38 40 3e b5 0c 8b 3e c3 d7 c3 be 5e de 3e 3e
       0.18771625 0.27158132 -0.3825055 0.18639514
0002e0 37 3d 7a 3e cd 79 57 3e f4 10 50 3e 76 29 1b 3e
       0.24437414 0.21042557 0.20318967 0.15152535
0002f0 16 43 c1 3d 95 77 29 3e ab 92 e6 3d a9 d5 b9 3e
       0.09436624 0.16549523 0.112584434 0.36295822
000300 1a 93 fa bd f6 56 59 bd c3 c3 46 3d b9 6d 78 3d
       -0.12235089 -0.053061448 0.048526537 0.060651515
000310 8a 4a e6 bd b5 17 20 bd 53 3d 87 bd 7c 99 99 bd
       -0.11244686 -0.03908511 -0.066034935 -0.07499978
000320 b3 8e 86 bc 2b 27 6f bd c0 91 84 bb 12 16 82 3d
       -0.016425466 -0.058386963 -0.004045695 0.06351866
000330 e8 56 e1 bd f4 2b a1 3d da 40 76 bd d2 d0 50 bd
       -0.11002904 0.078697115 -0.06012044 -0.050980397
000340 76 51 d6 bd 58 67 ce bc 60 cd ab 3d 06 06 ad 3c
       -0.10464756 -0.025195763 0.083887815 0.021121036
000350 d1 3a a9 3b 7a 1b 8b bd fd fa 99 bc c2 e1 db 3d
       0.005164482 -0.0679235 -0.018796438 0.10736419
000360 21 96 dd bd 80 a1 f0 bb 5f df 4b bd 2a 70 64 3d
       -0.108196504 -0.007343471 -0.04977357 0.05577103
000370 cd ad bd bd bb 58 e3 3d aa f3 1b be 74 34 60 bc
       -0.092616655 0.11100908 -0.15229669 -0.013684381
000380 1d ef 9c bd ce fe ad 3d 4f 45 17 be ca cb 9c 3d
       -0.07662795 0.08495866 -0.14772533 0.07656057
000390 dc 84 c7 3d d2 ca 91 3d a9 68 cc 3c f7 f3 f8 3b
       0.09742138 0.07118763 0.02495225 0.0075974423
0003a0 cb ae 12 be 8c 3d 04 be 9a 43 07 bd eb 16 81 3d
       -0.1432449 -0.12914103 -0.033023454 0.063031994
0003b0 cd 3e ad bd bb 1a 90 3d 13 3d 2f 3b 55 87 e6 bd
       -0.08459244 0.070363484 0.0026739284 -0.11256281
0003c0 72 e8 23 ba c3 57 0b bd ba 25 5f 3c 7d 69 ce bd
       -0.00062525936 -0.034019243 0.013619835 -0.10078714
0003d0 f9 32 d9 3b bc ba 1a 3a 0e 73 0c be 8e 3c da bd
       0.006628391 0.00059024594 -0.13715765 -0.10656081
0003e0 c0 15 5b bd 3f 9b ef bd 99 00 5b bd 45 2f 82 3d
       -0.05348754 -0.11699533 -0.053467367 0.06356672
0003f0 98 56 01 3d f4 9e d8 bd 6a aa 9a 3d d1 a5 71 3c
       0.031576723 -0.10577193 0.07552035 0.014749006

model.2.bias f4 [32]
000000 b6 6b 8f 3d 17 f3 38 3d e6 e8 af 3d 45 33 0b be
       0.07002966 0.045153704 0.08589344 -0.13593777
000010 93 d2 eb bd d2 b6 15 3e a6 42 4e 3c 6f 71 b9 3d
       -0.11514773 0.14620522 0.012589132 0.09054839
000020 53 97 c9 bd 9f 4b c8 3d 96 78 c5 bd 60 c7 18 3d
       -0.09843316 0.097800486 -0.096421406 0.037299514
000030 92 8a f1 3d 17 7e 48 3a 37 6f b0 3d f3 32 47 3d
       0.11794008 0.00076481834 0.086149625 0.048632573
000040 f3 8b 42 3d 12 92 ab 3d df 8b 8d 3c 0d 8c d6 bc
       0.047496747 0.0837747 0.01727861 -0.026189828
000050 22 3c 90 3d 72 a0 af 3d 0d 86 03 3d 2e c7 40 3e
       0.070427194 0.085755244 0.032110263 0.18825981
000060 35 da 00 3d 57 4d e2 bd b0 21 d4 3d 6e 4c 39 3e
       0.0314581 -0.11049908 0.10357988 0.18095562
000070 c3 95 00 3e 33 9a 15 be 12 f2 6e 3d e6 b5 92 3d
       0.1255713 -0.14609604 0.058336325 0.071636006

model.4.weight f4 [1, 32]
000000 c2 9b 67 3e 01 58 a7 3e 85 29 63 3e a9 14 af bd
       0.2261801 0.3268433 0.22183807 -0.085488625
000010 ed 01 2d bd ff 40 d0 be d0 b7 6a be 4f c6 cc bd
       -0.042238165 -0.40674588 -0.22921681 -0.09998762
000020 c1 a4 95 bb f1 db 13 be 4a 3a 06 be 9e ca c5 bd
       -0.0045667593 -0.1443937 -0.13108173 -0.09657787
000030 02 ad 04 bf fa 4f 73 3e 4d 03 a0 3e 41 68 5a 3e
       -0.5182649 0.23760977 0.31252518 0.21328832
000040 0a 4e ec be 79 0b 41 3e fa c4 21 bd 43 35 fa be
       -0.4615329 0.18852033 -0.039494492 -0.4886876
000050 d7 08 77 3e 20 2d 96 3e 88 3d 07 bf dc 8f a1 3e
       0.24124466 0.29331303 -0.52828264 0.31555068
000060 57 3f 54 3e 0c aa 74 bc 26 40 0e bf f5 9b 50 3e
       0.20727287 -0.01493312 -0.5556663 0.20371993
000070 b4 4e 9a 3e 79 12 11 be ee a9 c8 be 2d d9 70 3e
       0.3013817 -0.14167203 -0.39192146 0.23520346
