models/mlp_option_pricing.pth (torch, 13814 bytes, 5 tensors)

model.0.weight f4 [64, 9]
000000 b0 a0 a1 be ac c9 b6 3d 7d 03 f9 3e 25 96 83 3b
       -0.31567907 0.089251846 0.48635474 0.0040157014
000010 28 af 6e bd 7d 19 00 be b7 f6 31 3d 9f 80 b1 be
       -0.05827251 -0.12509723 0.043448176 -0.34668443
000020 a7 69 34 be fc 8b 2a be a5 be 8f 3e 06 21 0f 3f
       -0.17618428 -0.16654962 0.28075138 0.55909765
000030 5d 73 34 3e 22 83 a1 3d 05 e3 05 3e c5 7d 45 3d
       0.17622133 0.0788634 0.13074882 0.048215646
000040 66 09 86 be 56 21 dd 3e 17 16 dd be 6d a4 3f 3d
       -0.26179045 0.43189496 -0.43180916 0.046787668
000050 e7 ad 03 bf bb b0 e5 bd e3 d7 9b bd 0a 2f c9 3e
       -0.5143723 -0.11215349 -0.076095365 0.392937
000060 63 99 3b 3e b1 fd d1 be f0 9a 89 3e 47 28 ba 3e
       0.18320231 -0.41013864 0.2687602 0.36358854
000070 78 5c 92 bd 1e a0 ad 3d a8 89 c6 bc bb bd b6 3c
       -0.07146543 0.084778056 -0.024235561 0.022307267
000080 f1 17 86 3e d5 d6 13 be 96 7e 04 bf b7 80 ee 3e
       0.2619014 -0.1443742 -0.51755655 0.46582577
000090 86 2d f1 be c4 3c ab 3e 51 c1 be be 0b 27 f4 3d
       -0.47105044 0.33444798 -0.37256864 0.11921509
0000a0 ef 22 47 3d f5 fe 38 3d e6 50 cc be ff 92 a3 3e
       0.0486173 0.04516502 -0.3990547 0.31948087
0000b0 06 a7 30 3e 71 36 c7 be 00 d7 7d 3e a8 0b c5 be
       0.17251214 -0.38908723 0.24789047 -0.38485456
0000c0 27 b5 37 be 94 e1 3c bd 16 74 04 be d2 ca 88 bd
       -0.17940198 -0.046113566 -0.12934908 -0.0667931
0000d0 bb e8 04 bf ff 71 7c 3e d9 60 35 3d 4c fc 89 3d
       -0.5191762 0.24652861 0.044281814 0.06737575
0000e0 10 4e 0a 3f cd b5 98 bd fd 00 13 be 60 e1 af be
       0.54025364 -0.07456551 -0.14355846 -0.34351635
0000f0 b4 6d 1c bd 99 81 b1 3d e1 2f 84 be e3 1e 67 3e
       -0.03819056 0.08667297 -0.2581778 0.22570376
000100 ae 76 af 3e 04 a0 f0 bd ab d0 16 be c4 0f d0 ba
       0.34270233 -0.117492706 -0.14728038 -0.0015873839
000110 0d 47 24 bd 29 df d7 be 4b af b1 be 61 e6 36 bd
       -0.04010682 -0.42162445 -0.3470405 -0.0446533
000120 f2 14 d7 3e ee 4b ed bd 5e 0b e0 be e7 2b 7a bd
       0.42008168 -0.11586748 -0.43758672 -0.061077025
000130 a7 58 36 be 8d 0a 77 3e 05 a0 c6 be 63 33 c7 be
       -0.17807256 0.24125119 -0.3879396 -0.38906392
000140 9c 69 8e 3e d9 31 e7 be e6 d7 3b be 3d 2c 18 bf
       0.2781495 -0.45155218 -0.18344077 -0.594425
000150 5e e2 27 be ae de b6 3d 88 fc 8c bd d6 06 62 be
       -0.16394946 0.089291915 -0.06884104 -0.2207292
000160 7e 73 8d 3e 6b cd c8 3d 2f 48 fd 3d fb 89 e6 bd
       0.27627176 0.09804805 0.123672836 -0.112567864
000170 f9 83 a9 3c 8b 33 ab 3d 00 1b 67 be 1d be 8a 3e
       0.020692812 0.083594404 -0.22568893 0.2709817
000180 56 3e 8c be 47 79 a6 be 83 0f bf 3e e3 02 c5 3d
       -0.2739131 -0.32514402 0.37316522 0.09619691
000190 5f eb 1d be 8d a9 d8 3c a2 38 8f bc 42 50 3f be
       -0.15421818 0.026448036 -0.01748306 -0.1868296
0001a0 94 98 52 be b9 3a 39 be e8 4b e0 bd 62 0b b0 3e
       -0.20566016 -0.18088807 -0.10951978 0.34383684
0001b0 db 69 f3 be 08 96 46 3e c0 28 0e bf 28 c3 5b be
       -0.475417 0.1939317 -0.5553093 -0.21461165
0001c0 98 ba b6 3d 8b 27 b1 3d 9d 66 03 3d 64 72 08 be
       0.08922309 0.0865012 0.03208028 -0.13324887
0001d0 60 54 cb be 4d 8a 18 3c a8 41 9c 3d 75 99 2e 3f
       -0.3971281 0.009310317 0.076297104 0.68202907
0001e0 3f 4e 2c be 58 db 64 3e 86 29 5a be 65 64 f4 bd
       -0.16826724 0.22349298 -0.21304902 -0.11933211
0001f0 c0 4a 1e bc 91 6a ed ba b4 33 9c 3e 22 18 89 3d
       -0.0096613765 -0.0018113424 0.30508196 0.06694056
000200 02 5f de be 3b 3d 7b bc e8 4f 6c be 47 5b 3e be
       -0.4343186 -0.015334423 -0.23077357 -0.18589507
000210 31 43 68 be 4d c5 0f bd 03 b7 bc 3e 5d ba 98 bd
       -0.22681881 -0.03510027 0.36858377 -0.07457421
000220 2b fc a5 bd c9 88 29 3f 5d a6 39 be 24 75 e6 3d
       -0.08104738 0.6622434 -0.18129869 0.112528116
000230 17 19 42 be 43 1e f7 3c 46 6e ff 3c 21 e2 85 be
       -0.18954884 0.030165797 0.031180512 -0.26149085
000240 66 3f e1 3c 25 5e 8f bd 13 2f 76 3c cb 5b 52 3e
       0.027496051 -0.070003785 0.015025872 0.20542829
000250 11 f3 62 3e a3 62 8f 3e c3 2b f7 be ab 4c fb 3e
       0.22163035 0.2800494 -0.48275575 0.4908193
000260 44 49 71 bc 8e 2b f6 be 66 ed ff 3d 62 10 fd 3e
       -0.014726941 -0.48080105 0.12496452 0.49426562
000270 40 c7 43 be fa 2e 50 3e 43 89 85 3d 15 45 05 3f
       -0.19118977 0.2033042 0.06520321 0.52058536
000280 ae cc 58 be a6 98 e2 bd 38 b0 28 be a5 31 ca bd
       -0.21171829 -0.11064272 -0.16473472 -0.0987275
000290 3c 36 94 3e 19 7d 1c 3d 42 74 a3 3e ca fc 4f be
       0.28947628 0.03820524 0.31924635 -0.20311275
0002a0 9e 13 df 3e 79 e1 61 be be 7a 5e be 9c ef e8 be
       0.43569654 -0.22058667 -0.2172651 -0.45495307
0002b0 c6 94 2c be da 83 22 be 67 0a 11 be 61 62 10 3e
       -0.16853628 -0.1587061 -0.14164124 0.14100029
0002c0 a5 75 05 be e9 c2 24 3f f4 1b cd 3c 2f 7c d7 be
       -0.13033159 0.6435991 0.025037743 -0.42086932
0002d0 30 1b f6 3d c7 e4 60 be 02 34 b1 3d d6 f3 1d 3e
       0.12016904 -0.21962272 0.08652498 0.15425047
0002e0 77 43 37 3e 3e bb 7a 3e b2 a1 a7 3e 0e bb cb be
       0.1789683 0.2448549 0.3274055 -0.3979115
0002f0 bf da f2 bd da 47 d4 be 7d 9b c0 bd 8d 02 ae 3e
       -0.11858129 -0.41461068 -0.09404657 0.3398632
000300 79 36 42 bd c7 4c ed bd 1e 29 af bd 45 88 01 3f
       -0.04741523 -0.1158691 -0.08552764 0.50598556
000310 d9 85 28 be 60 1b 4d bd 9c f3 a3 3d 68 cc 6a bc
       -0.16457309 -0.050074935 0.08005449 -0.014330961
000320 a9 1d e8 be c2 99 07 3d 82 d5 88 3e b4 0a 2a 3e
       -0.4533513 0.03310562 0.26725394 0.16605645
000330 99 ed 85 3c 6b 68 dd bd 29 6d 9f 3e d1 cc df be
       0.016348647 -0.10810932 0.3113797 -0.4371095
000340 9b ab 5c 3e bd 63 aa 3e 14 3f cc bd 7d 65 13 bd
       0.21549837 0.3327922 -0.09972969 -0.03598546
000350 d6 38 2c be 79 61 a0 3d f6 5b 6a be dc 38 bf 3e
       -0.16818556 0.078310914 -0.22886643 0.37348068
000360 6e 72 b2 be 9f 98 b2 3e 08 2c b2 be ba 78 13 3e
       -0.34852928 0.34882066 -0.34799218 0.14401522
000370 ba 40 e2 bd 05 64 2f bd a2 2d bc 3d ac a7 a1 be
       -0.11047502 -0.042819995 0.09188391 -0.31573236
000380 89 3f cb 3e a7 0e 7a be 25 78 bf 3e 0b 93 42 be
       0.3969691 -0.24419652 0.3739635 -0.19001405
000390 6f 6e e8 bd 38 41 bd bc a0 de 95 3e 1e de b4 3d
       -0.113491885 -0.023102388 0.29271412 0.08831428
0003a0 fc dd dd be c3 05 66 3e b0 c3 59 3e 82 43 ac 3e
       -0.43333423 0.22463135 0.21266055 0.33645254
0003b0 4a bc f7 3c f9 cf 98 3e 76 90 46 be de 2a d9 3d
       0.03024115 0.2984617 -0.19391045 0.106038794
0003c0 f3 19 61 3a 80 5d 3f bd 86 c1 dd 3e 7e e1 c1 be
       0.00085869356 -0.046720028 0.4331171 -0.3786735
0003d0 77 5c 8b bd b0 64 bb 3c a1 b1 9c 3e d4 d0 48 3e
       -0.06804746 0.02287516 0.3060427 0.19610912
0003e0 e8 6e 2e 3e 36 63 8c 3d 70 a7 8d be 5a 03 60 3e
       0.17034495 0.068548605 -0.27666807 0.21876279
0003f0 8f fd e3 be 90 3f b3 bd 6b c2 e8 3c a2 4b f2 bd
       -0.44529387 -0.08752358 0.028413018 -0.11830832

model.0.bias f4 [64]
000000 a9 97 b9 be dc 27 42 bd d5 34 41 3d 2c 9e 92 bd
       -0.3624852 -0.047401294 0.047169525 -0.07159075
000010 c3 4f 74 bd 7f ed 45 3e 9b 9b ce bd 8e b1 8d 3e
       -0.05964638 0.19328879 -0.10088273 0.27674526
000020 b6 7e 79 bb db 03 b3 3e 2b 4f 6f be f2 fd 3d 3e
       -0.003806991 0.3496388 -0.23370044 0.18553904
000030 2b 6b ae 3e d6 d6 80 be b1 ae 35 3e 51 60 a3 bd
       0.34066138 -0.25163907 0.1774242 -0.07977355
000040 ce b3 97 3e 57 3d aa 3d f0 9a d5 3e 9c 35 04 be
       0.29629368 0.08312481 0.4171977 -0.12911075
000050 8f ee c2 bd 06 23 8d 3e 28 9c a3 bd d7 b4 8f 3e
       -0.09518158 0.27565783 -0.07988769 0.28067657
000060 74 79 ae 3e d2 bf e2 bd e4 a2 2a 3e 74 fc 13 3e
       0.34077036 -0.11071743 0.166637 0.14451772
000070 e1 28 26 bd b6 e8 a7 3e 6b f6 26 3e 72 60 96 3e
       -0.04056633 0.32794732 0.16304938 0.29370457
000080 c0 eb 72 3d 52 a3 68 3e 34 0a c4 3e 9f 30 49 be
       0.05930686 0.22718552 0.38289034 -0.19647454
000090 92 df ce 3e 8d 3e e0 3c 71 b1 3b bd 3b 59 9a 3e
       0.40404946 0.027373577 -0.04582352 0.30146202
0000a0 7e ca 82 3e ec fc 1e 3e da 52 31 3e 92 d0 b3 3d
       0.25545114 0.1552617 0.17316762 0.08780016
0000b0 f1 f0 ee bb b8 bb 14 3e dd eb cf bd 34 7f c5 3e
       -0.007291906 0.14524734 -0.10152409 0.3857361
0000c0 6e c2 00 3e bb f8 d1 3e 17 b7 ad be 75 e5 d3 3e
       0.12574169 0.4101008 -0.3392875 0.41386
0000d0 41 23 7d be 34 4a 19 be 6f 6f 71 be 12 29 17 be
       -0.2472048 -0.14969712 -0.23577665 -0.14761761
0000e0 13 06 d2 3a 4e e1 8c 3e 1d 8b ee 3d 93 8e 0f be
       0.0016023539 0.27515644 0.116476275 -0.14019231
0000f0 72 82 33 be 91 12 d3 3e 47 49 b8 be 43 f0 3a 3e
       -0.1753023 0.41225103 -0.35993406 0.18255715

model.2.weight f4 [32, 64]
000000 ef 35 f8 3e ef 90 9e 3e 33 0b 95 3d 28 e2 29 3e
       0.48478648 0.3096995 0.07277527 0.16590178
000010 61 bd cb bd eb 1d b2 3d 5f 15 d1 3d 9a e0 d0 3d
       -0.099482305 0.08697113 0.10209154 0.10199089
000020 bc 75 76 3e c2 eb 93 bc 6d 60 45 3e 14 0c 1b 3d
       0.2406835 -0.018056754 0.19275065 0.037853315
000030 66 d5 39 3e f4 19 b2 3e 1d 7c df 3c 28 3c a4 3d
       0.18147811 0.34785426 0.027280862 0.080192864
000040 61 7c 73 3d 73 0d 6a 3e 9d c1 0b 3e cf 32 91 3e
       0.05944479 0.22856693 0.13648076 0.28359076
000050 22 85 be 3d a7 70 84 3e c3 2e 6e 3e 51 b8 8f 3d
       0.09302737 0.25867197 0.23260026 0.070175774
000060 34 52 e0 3d 08 40 40 3e 32 3b 57 3d ef 9a 5e 3e
       0.10953179 0.18774426 0.052546687 0.2173879
000070 de 79 48 3d d5 2f f0 3d 42 9d ae 3e c1 f3 53 3e
       0.048944347 0.11727873 0.34104353 0.20698453
000080 d2 15 36 3e ed 19 f9 3d 0d a5 bd bc 49 75 76 bb
       0.17781761 0.12163148 -0.023149991 -0.0037606528
000090 26 cc 4b 3e c1 2e 8d 3d 23 63 b1 3e b0 07 71 bc
       0.19902095 0.06893683 0.34645948 -0.0147113055
0000a0 75 2e 6b 3e 16 32 87 bd c1 d0 73 3e aa 47 20 3e
       0.2296694 -0.0660135 0.23810102 0.15652338
0000b0 8b d2 22 3e 3d 50 bc be 6a c7 98 3e dd df bc 3d
       0.15900628 -0.36779967 0.2983964 0.09222386
0000c0 38 f7 4d 3e 98 2e e6 3d 71 54 2b 3e f4 c3 79 3e
       0.20113838 0.11239356 0.1673143 0.24391156
0000d0 b0 d9 63 3e a2 ab 35 3d 87 10 b1 3d 30 8f 47 3e
       0.2225101 0.044353135 0.086457305 0.19488215
0000e0 4b 75 f2 bd ca 87 3d be 7c 62 29 3e d9 7c 74 3e
       -0.11838778 -0.1850883 0.16541475 0.2387575
0000f0 35 0f f6 3c b1 72 47 bc 86 51 2a 3e 67 f8 13 3e
       0.030036548 -0.012173341 0.16632661 0.14450227
000100 ee a9 e0 3e 7a fd e8 3d 4f 20 20 3e 3a 88 66 3e
       0.43879646 0.11376472 0.15637325 0.22512904
000110 dd fa e7 3b 63 6e e8 3c 6d cd 4d 3e 0e d8 1e 3e
       0.007079466 0.028372949 0.20097895 0.15512106
000120 1a 75 6d 3e 82 e2 66 bd 2f cc 88 bb 62 a8 b8 3c
       0.23189202 -0.05636836 -0.004174731 0.022541229
000130 df 53 95 3d 05 3a 94 3e 13 fb 57 3e 4c 60 89 3d
       0.07291388 0.28950515 0.21091871 0.0670782
000140 7b 4a 6a bd 14 06 09 3e 66 32 7a 3e 1a bf 65 3e
       -0.057199936 0.13381225 0.24433288 0.2243618
000150 77 03 94 3d 92 a7 b9 3d 25 26 98 3d 46 0a 6c 3e
       0.07227223 0.090651646 0.074291505 0.23050794
000160 8b 49 ab 3d d5 82 43 3b 5b d3 e2 3d 36 8b 29 3c
       0.083636366 0.002983262 0.11075469 0.010348132
000170 5f d3 20 3e 52 9c 3d 3e fb a0 16 3e 51 33 bd 3c
       0.15705632 0.18516663 0.14709847 0.023095759
000180 a1 61 9b 3d 25 5d 87 3d 88 c2 4f be 54 2d d5 ba
       0.075869806 0.06609563 -0.20289052 -0.0016264119
000190 f7 3d 64 3c 2c 89 31 3e 1e 32 a2 3e 1a 43 e6 ba
       0.013930789 0.17337483 0.3167886 -0.0017567605
0001a0 f8 d0 a9 3d dc ad 09 3d 39 35 61 3e 81 c2 ef 3d
       0.08291811 0.03361307 0.21992959 0.117070206
0001b0 02 20 1f 3e 8a a0 87 be 44 d0 07 3e 14 ed f8 3d
       0.15539554 -0.2648967 0.13263041 0.12154594
0001c0 a2 f8 42 3d 02 ef 10 3e 83 a7 21 3e 90 fa 3b 3e
       0.047600396 0.14153674 0.15786557 0.18357301
0001d0 95 21 55 3e aa 60 67 bd 10 82 aa 3d 30 9a 0b 3e
       0.20813592 -0.05648867 0.08325589 0.13633037
0001e0 c4 63 b2 bd 41 f0 ad bd 58 ca 40 3d f7 fc 0c 3e
       -0.08710435 -0.084930904 0.04706797 0.13768373
0001f0 eb 66 4d 3b 4f 0f c1 3d db fb 33 3e 05 76 18 3e
       0.0031341861 0.09426748 0.17576544 0.14888771
000200 6f 89 8f 3e 1b d4 c8 3e 59 a6 c4 bd e2 28 06 3b
       0.2803454 0.39224324 -0.09602041 0.0020471145
000210 bb 13 a6 be 84 fd 4e bd 51 e0 7e 3e 7f 72 95 3e
       -0.32436928 -0.05053474 0.24890257 0.29188916
000220 7d ab 2a 3e 85 68 ec be e7 fc 67 3d 00 ff 5a bd
       0.1666698 -0.46173492 0.05663767 -0.053465843
000230 55 f2 bf be 17 ee 9e 3e 58 8f 09 be 1b bd 60 3e
       -0.37489572 0.31041023 -0.13433588 0.21947138
000240 de e4 0a be b7 46 6b 3e 5c 60 06 3e d5 4b a9 be
       -0.13563868 0.22976194 0.13122696 -0.33065668
000250 5f 95 79 3d f5 33 ec 3b 81 c1 b6 bd 8e b7 0f 3e
       0.060933467 0.007208342 -0.08923627 0.14034864
000260 9c 95 b5 bd f0 8c 2a be 3d 1c 16 3e ac ec 9e bd
       -0.08866426 -0.16655326 0.1465921 -0.07759985
000270 a8 a2 b3 3c de 3b 7f bc 5a 92 1f be 88 f7 ed bc
       0.021928146 -0.015578238 -0.15583172 -0.029048696
000280 f5 00 b1 bd 68 86 82 bd 4e 2c 0e bf bf 77 42 3e
       -0.08642761 -0.06373292 -0.55536354 0.18990992
000290 22 9d ac be 99 6c e7 bd a7 ce 4a 3e c6 26 9a bd
       -0.33713633 -0.1130001 0.19805394 -0.07526927
0002a0 ce 67 5c bd f5 d8 05 3f fb f5 40 bd 91 3c f1 3d
       -0.053809933 0.52284175 -0.047109585 0.1177913
0002b0 10 f5 fb bd 2a 77 ac bd 61 1e e3 bd 1a 1a ab 3e
       -0.12302601 -0.08421166 -0.11089779 0.3341835
0002c0 b1 26 29 bd fb f5 e4 bc 0b 08 f5 3e e6 86 2f bd
       -0.041296665 -0.027949324 0.478577 -0.04285326
0002d0 03 1f a6 bd d3 0c 0f bd 96 c7 51 bd 1b 35 09 3e
       -0.08111384 -0.03492434 -0.05121573 0.13399164
0002e0 02 32 64 bd 0b d7 c7 be cb f7 36 bd 80 4d 2c 3e
       -0.055711754 -0.39031252 -0.044669908 0.16826439
0002f0 cd e8 1d 3e 3f 5b 0e be a9 17 f9 3c 77 b9 f4 3c
       0.15420838 -0.13901995 0.03040679 0.029873593
000300 06 82 bc 3e 71 c0 b2 3d eb 52 86 3e 68 99 68 3e
       0.3681795 0.087281115 0.26235136 0.2271477
000310 c2 03 e5 3d 8a 10 25 3e 22 c6 93 3d f4 59 e0 3b
       0.11182357 0.1611959 0.07215525 0.0068466607
000320 92 bd 5b 3e e0 d7 50 3d 4b e4 07 3e 2f 5b 53 bd
       0.21459034 0.050987124 0.1327068 -0.05160063
000330 0a a3 25 bd 77 45 b5 3e 96 11 61 3e 76 98 66 3e
       -0.04043869 0.3540456 0.21979365 0.22519097
000340 db 77 13 bc b3 70 a6 3e ae e0 6c 3e 44 45 65 3e
       -0.009000744 0.32507858 0.23132583 0.22389704
000350 ac 11 d8 bd 84 73 16 3e a6 37 c1 3d d5 31 3c 3e
       -0.10550246 0.14692503 0.09434442 0.18378384
000360 ce 2e 47 3e 77 72 72 3e 66 b6 ac 3d 2f 87 f9 b9
       0.19451448 0.23676477 0.08433227 -0.000475937
000370 9b ae d8 3c 61 8c 29 3e ce 57 59 3e c8 ee 53 3e
       0.026450446 0.16557457 0.21224901 0.20696557
000380 f4 ad 8e 3e c3 dc 3a 3e ca 7e 42 be 72 ca 42 bd
       0.2786709 0.18248276 -0.18993679 -0.04755635
000390 be af e3 3d 95 61 b8 3c 21 82 a2 3e 85 8a 14 3d
       0.111175045 0.022507468 0.31739905 0.036264915
0003a0 b8 ed a5 3d 62 e6 70 bd e7 e9 4f 3e 79 73 75 3e
       0.08101982 -0.05881346 0.2030407 0.2396983
0003b0 2c 06 01 bc e1 07 b9 be cf 68 0a 3e 10 33 58 3e
       -0.007875007 -0.36138824 0.13516544 0.21113229
0003c0 bb bc 4d 3e 63 fc 33 3d 0e 5f 7a 3d 08 ed 32 3c
       0.20091526 0.043941867 0.061125807 0.0109207705
0003d0 f8 5d 97 3d 65 f4 02 be 0d 00 21 bd 92 27 19 3e
       0.0739097 -0.12788542 -0.03930669 0.14956501
0003e0 bc bc c4 3d 8b 5c 32 be 4c 12 a1 3d 0e ac 65 3e
       0.09606311 -0.17418115 0.07864818 0.22428915
0003f0 35 3a b0 3d 11 24 b4 3d ea 3c 59 3e 4a 89 e9 3d
       0.08604852 0.087959416 0.21214643 0.11403139

model.2.bias f4 [32]
000000 bc 93 a0 3c e2 79 9b 3d ed a2 1f be 11 77 e9 bc
       0.019601695 0.07591607 -0.15589495 -0.028499158
000010 81 83 b3 3b d9 c0 5a 3d ac e6 94 bd 62 fc 6b 3d
       0.005478323 0.05340657 -0.0727056 0.057613738
000020 e4 8f 1f 3e 85 08 a5 3c c2 3b 1c 3e 0d b4 35 3d
       0.15582234 0.020145664 0.15257171 0.044361163
000030 f4 fc f3 3d 34 f6 2e bc b4 e7 24 bd 41 7f 5a 3d
       0.11913481 -0.010678817 -0.04026003 0.053344015
000040 3f bb 9f 3d 4a 81 06 3e 56 d5 2c 3e 84 47 df bc
       0.07799386 0.13135257 0.16878256 -0.027255781
000050 b2 5c 1c 3d 0b 98 e9 bd e4 54 94 3c fb 9a c2 3c
       0.03817434 -0.11405953 0.018106885 0.023755541
000060 f7 65 44 3c 36 97 2d 3e d1 b2 53 3e 3f c8 c3 3d
       0.011987201 0.16952214 0.20673682 0.09559678
000070 7e 63 c1 bb 73 3b bb bd df 54 8d bd cf 1b 9f 3c
       -0.005901753 -0.091421984 -0.069009535 0.01942244

model.4.weight f4 [1, 32]
000000 2a a9 52 3e 56 0f 9e 3e e9 d6 44 bf 3e a1 a6 3e
       0.20572343 0.30871075 -0.76890427 0.32544893
000010 c3 51 67 3e 68 d3 9b 3e 6d 30 0e bf bf 0e 94 3e
       0.22589783 0.30434728 -0.5554264 0.289175
000020 da 50 66 3e 05 61 aa 3e 48 8a 1e bf 65 b0 8b 3e
       0.2249178 0.33277145 -0.6192975 0.27283016
000030 52 12 1d bf 66 89 9d 3e b1 8d 58 bf 82 a9 2f bf
       -0.6135608 0.3076889 -0.84591204 -0.68618023
000040 36 c8 17 bf e7 13 26 bf ba 21 67 3e 12 5a c1 bd
       -0.5928987 -0.6487412 0.2257146 -0.09441008
000050 1e d6 59 bf 2e 14 10 be 9b ef 61 3e 89 2e 86 3e
       -0.8509234 -0.14070198 0.22064058 0.26207379
000060 df dc a1 3e 5c 87 df be e3 82 3d 3e b9 4c 98 3e
       0.31613824 -0.43657959 0.1850696 0.29746035
000070 63 fa a9 3a 92 80 ec 39 ef ae e9 be ce 97 da 3e
       0.0012968298 0.0004510922 -0.45641276 0.42693943
